…
k_cast(k_floatx()) }) # adicionando regras de otimização, # função de perda e métrica a acompanhar model %\u0026gt;% compile( optimizer = optimizer_adam(), loss = loss_categorical_crossentropy, metrics = metric_captcha ) # ajustando modelo model %\u0026gt;% fit( x = data$train$x, y = data$train$y, validation_data = list(data$test$x, data$test$y), batch_size = 64, epochs = 10 ) A estrutura do modelo ajustado é dada abaixo:\n__________________________________________________________ Layer (type) Output Shape Param # ========================================================== input_1 (InputLayer) (None, 28, 140, 1) 0 __________________________________________________________ conv2d (Conv2D) (None, 28, 140, 16) 416 __________________________________________________________ max_pooling2d (MaxPooling (None, 14, 70, 16) 0 __________________________________________________________ conv2d_1 (Conv2D) (None, 14, 70, 32) 4640 __________________________________________________________ max_pooling2d_1 (MaxPooli (None, 7, 35, 32) 0 __________________________________________________________ conv2d_2 (Conv2D) (None, 7, 35, 64) 18496 __________________________________________________________ max_pooling2d_2 (MaxPooli (None, 3, 17, 64) 0 __________________________________________________________ flatten (Flatten) (None, 3264) 0 __________________________________________________________ dense (Dense) (None, 64) 208960 __________________________________________________________ dropout (Dropout) (None, 64) 0 __________________________________________________________ dense_1 (Dense) (None, 50) 3250 __________________________________________________________ reshape (Reshape) (None, 5, 10) 0 __________________________________________________________ activation (Activation) (None, 5, 10) 0 ========================================================== Total params: 235,762 Trainable params: 235,762 Non-trainable params: 0 __________________________________________________________ Agora, podemos utilizar o oráculo com o modelo:\nresult \u0026lt;- oracle_mnist(model, 0) result$res $predito [1] 8 6 6 0 1 $acertou [1] TRUE $quais NULL $gabarito NULL set.seed(13) result \u0026lt;- oracle_mn
…
t;same\u0026quot;) %\u0026gt;% layer_activation_leaky_relu() %\u0026gt;% # Reduzir o número de cores para 1 (imagem preto e branco) layer_conv_2d( 1, 3, padding = \u0026quot;same\u0026quot;, activation = \u0026quot;tanh\u0026quot;) # coloca os dois inputs e o output no modelo keras_model(list(latent, image_class), output) } build_generator() Model ___________________________________________________________________________________________ Layer (type) Output Shape Param # Connected to =========================================================================================== noise (InputLayer) (None, 4, 10) 0 ___________________________________________________________________________________________ sampled_labels (InputLayer) (None, 4, 10) 0 ___________________________________________________________________________________________ add_2 (Add) (None, 4, 10) 0 noise[0][0] sampled_labels[0][0] ___________________________________________________________________________________________ flatten_4 (Flatten) (None, 40) 0 add_2[0][0] ___________________________________________________________________________________________ dense_10 (Dense) (None, 392) 16072 flatten_4[0][0] ___________________________________________________________________________________________ reshape_5 (Reshape) (None, 4, 7, 14) 0 dense_10[0][0] ___________________________________________________________________________________________ conv2d_transpose_4 (Conv2DTra (None, 64, 14, 28) 2368 reshape_5[0][0] ___________________________________________________________________________________________ leaky_re_lu_10 (LeakyReLU) (None, 64, 14, 28) 0 conv2d_transpose_4[0][0] ___________________________________________________________________________________________ conv2d_transpose_5 (Conv2DTra (None, 64, 28, 56) 36928 leaky_re_lu_10[0][0] ___________________________________________________________________________________________ leaky_re_lu_11 (LeakyReLU) (None, 64, 28, 56) 0 conv2d_transpose_5[0][0] ___________________________________________________________________________________________ conv2d_transpose_6 (Conv2DTra (None, 32, 28, 112) 18464 leaky_re_lu_11[0][0] ___________________________________________________________________________________________ leaky_re_lu_12 (LeakyReLU) (None, 32, 28, 112) 0 conv2d_transpose_6[0][0] ___________________________________________________________________________________________ conv2d_8 (Conv2D) (None, 1, 28, 112) 289 leaky_re_lu_12[0][0] =========================================================================================== Total params: 74,121 Trainable params: 74,121 Non-trainable params: 0 ___________________________________________________________________________________________ No caso, nossa resposta é 4747:\n[,1] [,2] [,3] [,4] [,5] [,6] [,7] [,8] [,9] [,10] [1,] 0 0 0 1 0 0 0 0 0 0 [2,] 0 0 0 0 0 
…
egunda resposta (Y) aux \u0026lt;- features %\u0026gt;% layer_dense(4 * 10, activation = \u0026quot;relu\u0026quot;) %\u0026gt;% layer_reshape(c(4, 10)) %\u0026gt;% layer_activation(\u0026quot;softmax\u0026quot;, name = \u0026quot;auxiliary\u0026quot;) # junta os dois no resultado keras_model(image, list(fake, aux)) } build_discriminator() Model ___________________________________________________________________________________________ Layer (type) Output Shape Param # Connected to =========================================================================================== input_4 (InputLayer) (None, 1, 28, 112) 0 ___________________________________________________________________________________________ model_5 (Model) (None, 128) 900224 input_4[0][0] ___________________________________________________________________________________________ dense_9 (Dense) (None, 40) 5160 model_5[1][0] ___________________________________________________________________________________________ dense_8 (Dense) (None, 32) 4128 model_5[1][0] ___________________________________________________________________________________________ reshape_4 (Reshape) (None, 4, 10) 0 dense_9[0][0] ___________________________________________________________________________________________ generation (Dense) (None, 1) 33 dense_8[0][0] ___________________________________________________________________________________________ auxiliary (Activation) (None, 4, 10) 0 reshape_4[0][0] =========================================================================================== Total params: 1,819,090 Trainable params: 909,545 Non-trainable params: 909,545 ___________________________________________________________________________________________ Note que o resultado é uma lista de dois outputs.\nO gan() gan() é a função que junta o discriminador e o gerador. Em t
…
sso super modelo de magia negra nada mais é do que isso: a aplicação consecutiva de convolve(), add_bias() e relu(), mas com pesos escolhidos a dedo (ou por um moedor de carne super-poderoso como o keras).\nAgora podemos ver nosso modelo atual da Receita Federal:\nm \u0026lt;- decryptrModels::read_model(\u0026quot;rfb\u0026quot;) m$model Model ____________________________________________________________________________________________________ Layer (type) Output Shape Param # ==================================================================================================== conv2d_4 (Conv2D) (None, 50, 180, 12) 312 ____________________________________________________________________________________________________ max_pooling2d_4 (MaxPooling2D) (None, 25, 90, 12) 0 ____________________________________________________________________________________________________ conv2d_5 (Conv2D) (None, 25, 90, 48) 14448 ____________________________________________________________________________________________________ max_pooling2d_5 (MaxPooling2D) (None, 12, 45, 48) 0 ____________________________________________________________________________________________________ conv2d_6 (Conv2D) (None, 12, 45, 96) 115296 ____________________________________________________________________________________________________ max_pooling2d_6 (MaxPooling2D) (None, 6, 22, 96) 0 ____________________________________________________________________________________________________ flatten_2 (Flatten) (None, 12672) 0 ____________________________________________________________________________________________________ dense_3 (Dense) (None, 32) 405536 ____________________________________________________________________________________________________ dropout_2 (Dropout) (None, 32) 0 ____________________________________________________________________________________________________ dense_4 (Dense) (None, 210) 6930 ____________________________________________________________________________________________________ reshape_2 (Reshape) (None, 6, 35) 0 ____________________________________________________________________________________________________ activation_2 (Activation) (None, 6, 35) 0 ==================================================================================================== Total params: 542,522 Trainable params: 542,522 Non-trainable params: 0 ____________________________________________________________________________________________________ O modelo aplica convolução 3 vezes consecutivas e faz algumas contas que não entendemos. Explico agora:\nconv2d_: são as conv
…
ambém aprendi a plotar os resultados parciais do modelo quebrador de captchas diretamente do keras.\nPodemos montar um modelo parcial do keras escolhendo qual o layer final do modelo.\nm2 \u0026lt;- keras::keras_model( inputs = m$model$input, outputs = keras::get_layer(m$model, \u0026quot;max_pooling2d_6\u0026quot;)$output ) m2 Model ____________________________________________________________________________________________________ Layer (type) Output Shape Param # ==================================================================================================== conv2d_4_input (InputLayer) (None, 50, 180, 1) 0 ____________________________________________________________________________________________________ conv2d_4 (Conv2D) (None, 50, 180, 12) 312 ____________________________________________________________________________________________________ max_pooling2d_4 (MaxPooling2D) (None, 25, 90, 12) 0 ____________________________________________________________________________________________________ conv2d_5 (Conv2D) (None, 25, 90, 48) 14448 ____________________________________________________________________________________________________ max_pooling2d_5 (MaxPooling2D) (None, 12, 45, 48) 0 ____________________________________________________________________________________________________ conv2d_6 (Conv2D) (None, 12, 45, 96) 115296 ____________________________________________________________________________________________________ max_pooling2d_6 (MaxPooling2D) (None, 6, 22, 96) 0 ==================================================================================================== Total params: 130,056 Trainable params: 130,056 Non-trainable params: 0 ____________________________________________________________________________________________________ Esse modelo é idêntico ao inicial, mas acaba no último max pooling. Para obter as imagens, utilizamos a função predict a part
…
ctivation(\u0026quot;tanh\u0026quot;, input_shape = 1, name = \u0026quot;tanh_de_dentro\u0026quot;) %\u0026gt;% layer_dense(units = 1, input_shape = 1, name = \u0026quot;camada_dois\u0026quot;) %\u0026gt;% layer_activation(\u0026quot;sigmoid\u0026quot;, input_shape = 1, name = \u0026quot;link_logistic\u0026quot;) modelo_keras_2 \u0026lt;- keras_model(input_keras_2, output_keras_2) summary(modelo_keras_2) Model _____________________________________________________________ Layer (type) Output Shape Param # ============================================================= modelo_keras_2 (InputLayer) (None, 1) 0 _____________________________________________________________ camada_um (Dense) (None, 1) 2 _____________________________________________________________ tanh_de_dentro (Activation) (None, 1) 0 _____________________________________________________________ camada_dois (Dense) (None, 1) 2 _____________________________________________________________ link_logistic (Activation) (None, 1) 0 ============================================================= Total params: 4.0 Trainable params: 4.0 Non-trainable params: 0.0 _____________________________________________________________ Quatro parâmetros ‘treináveis’, é isso aí! Dois parâmetros de dentro do tanh e os dois parâmetros de fora. Precisamos que o keras nos devolva -1, 2, -1 e 2 do jeito que geramos os dados.\nFunção de custo\nmode
…
