…
r})\r# adicionando regras de otimização, # função de perda e métrica a acompanhar\rmodel %\u0026gt;%\rcompile(\roptimizer = optimizer_adam(),\rloss = loss_categorical_crossentropy,\rmetrics = metric_captcha\r)\r# ajustando modelo\rmodel %\u0026gt;%\rfit(\rx = data$train$x, y = data$train$y,\rvalidation_data = list(data$test$x, data$test$y),\rbatch_size = 64,\repochs = 10\r)\rA estrutura do modelo ajustado é dada abaixo:\n__________________________________________________________\rLayer (type) Output Shape Param # ==========================================================\rinput_1 (InputLayer) (None, 28, 140, 1) 0 __________________________________________________________\rconv2d (Conv2D) (None, 28, 140, 16) 416 __________________________________________________________\rmax_pooling2d (MaxPooling (None, 14, 70, 16) 0 __________________________________________________________\rconv2d_1 (Conv2D) (None, 14, 70, 32) 4640 __________________________________________________________\rmax_pooling2d_1 (MaxPooli (None, 7, 35, 32) 0 __________________________________________________________\rconv2d_2 (Conv2D) (None, 7, 35, 64) 18496 __________________________________________________________\rmax_pooling2d_2 (MaxPooli (None, 3, 17, 64) 0 __________________________________________________________\rflatten (Flatten) (None, 3264) 0 __________________________________________________________\rdense (Dense) (None, 64) 208960 __________________________________________________________\rdropout (Dropout) (None, 64) 0 __________________________________________________________\rdense_1 (Dense) (None, 50) 3250 __________________________________________________________\rreshape (Reshape) (None, 5, 10) 0 __________________________________________________________\ractivation (Activation) (None, 5, 10) 0 ==========================================================\rTotal params: 235,762\rTrainable params: 235,762\rNon-trainable params: 0\r__________________________________________________________\rAgora, podemos utilizar o oráculo com o modelo:\nresult \u0026lt;- oracle_mnist(model, 0)\rresult$res\r$predito\r[1] 8 6 6 0 1\r$acertou\r[1] TRUE\r$quais\rNULL\r$gabarito\rNULL\rset.seed(13)\rresult \u00
…
6quot;) %\u0026gt;%\rlayer_activation_leaky_relu() %\u0026gt;%\r# Reduzir o número de cores para 1 (imagem preto e branco)\rlayer_conv_2d( 1, 3, padding = \u0026quot;same\u0026quot;, activation = \u0026quot;tanh\u0026quot;)\r# coloca os dois inputs e o output no modelo\rkeras_model(list(latent, image_class), output)\r}\rbuild_generator()\rModel\r___________________________________________________________________________________________\rLayer (type) Output Shape Param # Connected to ===========================================================================================\rnoise (InputLayer) (None, 4, 10) 0 ___________________________________________________________________________________________\rsampled_labels (InputLayer) (None, 4, 10) 0 ___________________________________________________________________________________________\radd_2 (Add) (None, 4, 10) 0 noise[0][0] sampled_labels[0][0] ___________________________________________________________________________________________\rflatten_4 (Flatten) (None, 40) 0 add_2[0][0] ___________________________________________________________________________________________\rdense_10 (Dense) (None, 392) 16072 flatten_4[0][0] ___________________________________________________________________________________________\rreshape_5 (Reshape) (None, 4, 7, 14) 0 dense_10[0][0] ___________________________________________________________________________________________\rconv2d_transpose_4 (Conv2DTra (None, 64, 14, 28) 2368 reshape_5[0][0] ___________________________________________________________________________________________\rleaky_re_lu_10 (LeakyReLU) (None, 64, 14, 28) 0 conv2d_transpose_4[0][0] ___________________________________________________________________________________________\rconv2d_transpose_5 (Conv2DTra (None, 64, 28, 56) 36928 leaky_re_lu_10[0][0] ___________________________________________________________________________________________\rleaky_re_lu_11 (LeakyReLU) (None, 64, 28, 56) 0 conv2d_transpose_5[0][0] ___________________________________________________________________________________________\rconv2d_transpose_6 (Conv2DTra (None, 32, 28, 112) 18464 leaky_re_lu_11[0][0] ___________________________________________________________________________________________\rleaky_re_lu_12 (LeakyReLU) (None, 32, 28, 112) 0 conv2d_transpose_6[0][0] ___________________________________________________________________________________________\rconv2d_8 (Conv2D) (None, 1, 28, 112) 289 leaky_re_lu_12[0][0] ===========================================================================================\rTotal params: 74,121\rTrainable params: 74,121\rNon-trainable params: 0\r___________________________________________________________________________________________\rNo caso, nossa resposta é 4747:\n [,1] [,2] [,3] [,4] [,5] [,6] [,7] [,8] [,9] [,10]\r[1,] 0 0 0 1 0 0 0 0 0 0\r[2,] 0 
…
posta (Y)\raux \u0026lt;- features %\u0026gt;%\rlayer_dense(4 * 10, activation = \u0026quot;relu\u0026quot;) %\u0026gt;% layer_reshape(c(4, 10)) %\u0026gt;% layer_activation(\u0026quot;softmax\u0026quot;, name = \u0026quot;auxiliary\u0026quot;)\r# junta os dois no resultado\rkeras_model(image, list(fake, aux))\r}\rbuild_discriminator()\rModel\r___________________________________________________________________________________________\rLayer (type) Output Shape Param # Connected to ===========================================================================================\rinput_4 (InputLayer) (None, 1, 28, 112) 0 ___________________________________________________________________________________________\rmodel_5 (Model) (None, 128) 900224 input_4[0][0] ___________________________________________________________________________________________\rdense_9 (Dense) (None, 40) 5160 model_5[1][0] ___________________________________________________________________________________________\rdense_8 (Dense) (None, 32) 4128 model_5[1][0] ___________________________________________________________________________________________\rreshape_4 (Reshape) (None, 4, 10) 0 dense_9[0][0] ___________________________________________________________________________________________\rgeneration (Dense) (None, 1) 33 dense_8[0][0] ___________________________________________________________________________________________\rauxiliary (Activation) (None, 4, 10) 0 reshape_4[0][0] ===========================================================================================\rTotal params: 1,819,090\rTrainable params: 909,545\rNon-trainable params: 909,545\r___________________________________________________________________________________________\rNote que o resultado é uma lista de dois outputs.\n\rO gan()\rgan() é a função que junta o discriminador e o gerad
…
per modelo de magia negra nada mais é do que isso: a aplicação consecutiva de convolve(), add_bias() e relu(), mas com pesos escolhidos a dedo (ou por um moedor de carne super-poderoso como o keras).\nAgora podemos ver nosso modelo atual da Receita Federal:\nm \u0026lt;- decryptrModels::read_model(\u0026quot;rfb\u0026quot;)\rm$model\rModel\r____________________________________________________________________________________________________\rLayer (type) Output Shape Param #\r====================================================================================================\rconv2d_4 (Conv2D) (None, 50, 180, 12) 312\r____________________________________________________________________________________________________\rmax_pooling2d_4 (MaxPooling2D) (None, 25, 90, 12) 0\r____________________________________________________________________________________________________\rconv2d_5 (Conv2D) (None, 25, 90, 48) 14448\r____________________________________________________________________________________________________\rmax_pooling2d_5 (MaxPooling2D) (None, 12, 45, 48) 0\r____________________________________________________________________________________________________\rconv2d_6 (Conv2D) (None, 12, 45, 96) 115296\r____________________________________________________________________________________________________\rmax_pooling2d_6 (MaxPooling2D) (None, 6, 22, 96) 0\r____________________________________________________________________________________________________\rflatten_2 (Flatten) (None, 12672) 0\r____________________________________________________________________________________________________\rdense_3 (Dense) (None, 32) 405536\r____________________________________________________________________________________________________\rdropout_2 (Dropout) (None, 32) 0\r____________________________________________________________________________________________________\rdense_4 (Dense) (None, 210) 6930\r____________________________________________________________________________________________________\rreshape_2 (Reshape) (None, 6, 35) 0\r____________________________________________________________________________________________________\ractivation_2 (Activation) (None, 6, 35) 0\r====================================================================================================\rTotal params: 542,522\rTrainable params: 542,522\rNon-trainable params: 0\r____________________________________________________________________________________________________\rO modelo aplica convolução 3 vezes consecutivas e faz algumas contas que não entendemos. Explico agora:\nconv2d_: são a
…
endi a plotar os resultados parciais do modelo quebrador de captchas diretamente do keras.\nPodemos montar um modelo parcial do keras escolhendo qual o layer final do modelo.\nm2 \u0026lt;- keras::keras_model(\rinputs = m$model$input,\routputs = keras::get_layer(m$model, \u0026quot;max_pooling2d_6\u0026quot;)$output\r)\rm2\rModel\r____________________________________________________________________________________________________\rLayer (type) Output Shape Param #\r====================================================================================================\rconv2d_4_input (InputLayer) (None, 50, 180, 1) 0\r____________________________________________________________________________________________________\rconv2d_4 (Conv2D) (None, 50, 180, 12) 312\r____________________________________________________________________________________________________\rmax_pooling2d_4 (MaxPooling2D) (None, 25, 90, 12) 0\r____________________________________________________________________________________________________\rconv2d_5 (Conv2D) (None, 25, 90, 48) 14448\r____________________________________________________________________________________________________\rmax_pooling2d_5 (MaxPooling2D) (None, 12, 45, 48) 0\r____________________________________________________________________________________________________\rconv2d_6 (Conv2D) (None, 12, 45, 96) 115296\r____________________________________________________________________________________________________\rmax_pooling2d_6 (MaxPooling2D) (None, 6, 22, 96) 0\r====================================================================================================\rTotal params: 130,056\rTrainable params: 130,056\rNon-trainable params: 0\r____________________________________________________________________________________________________\rEsse modelo é idêntico ao inicial, mas acaba no último max pooling. Para obter as imagens, utilizamos a função predict 
…
on(\u0026quot;tanh\u0026quot;, input_shape = 1, name = \u0026quot;tanh_de_dentro\u0026quot;) %\u0026gt;%\rlayer_dense(units = 1, input_shape = 1, name = \u0026quot;camada_dois\u0026quot;) %\u0026gt;% layer_activation(\u0026quot;sigmoid\u0026quot;, input_shape = 1, name = \u0026quot;link_logistic\u0026quot;)\rmodelo_keras_2 \u0026lt;- keras_model(input_keras_2, output_keras_2)\rsummary(modelo_keras_2)\rModel\r_____________________________________________________________\rLayer (type) Output Shape Param # =============================================================\rmodelo_keras_2 (InputLayer) (None, 1) 0 _____________________________________________________________\rcamada_um (Dense) (None, 1) 2 _____________________________________________________________\rtanh_de_dentro (Activation) (None, 1) 0 _____________________________________________________________\rcamada_dois (Dense) (None, 1) 2 _____________________________________________________________\rlink_logistic (Activation) (None, 1) 0 =============================================================\rTotal params: 4.0\rTrainable params: 4.0\rNon-trainable params: 0.0\r_____________________________________________________________\r\rQuatro parâmetros ‘treináveis’, é isso aí! Dois parâmetros de dentro do tanh e os dois parâmetros de fora. Precisamos que o keras nos devolva -1, 2, -1 e 2 do jeito que geramos os dados.\nFunção de cust
…
